model.pt (torch_old, 797703 bytes, 16 tensors)

encoder.model.1.weight f4 [16, 3, 7, 7]
00000000: ec48 80bd 5435 d13c 65b9 6a3d 237e bf3d
00000010: adf5 be3b c95e af3d 4423 0abd a4aa 35bd
00000020: af84 2a3d 2e13 003e b085 9e3c 4e44 0d3e
00000030: a8b4 873b 9948 34bc 31e0 efbc af46 a63d
00000040: 9c1e 763d 6745 7d3c 8fdc 9a3c bfad 303d
00000050: c093 bcbc 0bb2 ee3d 5688 8dbc 7ba1 f83c
00000060: f5d9 903d e551 ac3d bca1 733d c254 163e
00000070: 9e5f e43b a46d b33d 7871 653d 76ed b5bd
00000080: fa6f 003d 76e8 cd3d 3a88 203d 840e 013e
00000090: b1d4 543d 59c9 c8bc db19 c73b cf19 d53d
000000a0: d701 d23c 849d e23c 6e12 f93d 8a6e ef3d
000000b0: b1f1 c9bb edcc 6a3c 3647 2e3d 24db af3c
000000c0: d157 d3bc a372 dc3c 4abd 0e3c be37 973b
000000d0: c568 1c3c c3cd 38bc 30f5 933d 0055 9a3d
000000e0: 9dcb 4bbd 0f8c ee3d e2c0 d43c ec89 25bc
000000f0: ed27 cd3d b1b8 133c 8b52 223d 4f38 2a3d
00000100: 549e c93c 0196 003c 92b2 123d 1311 3f3c
00000110: 672b e83d 2577 993d 348b eb3c 955d 6abd
00000120: a570 60bc ef3d f4bd 99a9 fbbb 5c33 1e3c
00000130: 7f35 31bd f3d5 803d fbf1 1fbd d5c9 49bd
00000140: 94e1 e3bd a5e3 dfbd d5ef a3ba a752 b33d
00000150: 71ff 4b3d e77c 963d 382c 9fbd b5a6 53bd
00000160: 1348 96bc 3bd6 4f3d 5b88 c53d 6d61 903b
00000170: 7491 f53b 58cb 813c 21bb 1cbd ceea a83d
00000180: a464 133d 88cb a13d bf59 3a3d c91b 4f3d
00000190: feaf c03d 422d 573d bfa3 18bd d628 1d3c
000001a0: 9420 483d 6ee7 7b3c e11a 2e3c 8406 a7bd
000001b0: 5145 8fbd 451b dbbb d2b6 4dbc e875 283d
000001c0: ef15 a43b 8cd1 93bd 6c68 15be ae44 26be
000001d0: 7478 23be f5a9 07bd eac5 103d f383 d13c
000001e0: bfc1 5cbd 4d22 09be 289e 97be 0eaa 7cbe
000001f0: 8881 66bc 88b0 8ebd 2ca2 85bd 4627 74bd
00000200: 74c8 a1be b236 b6be 139c 63be 6b0d 65bd
00000210: c49d b2bd 91d7 693b 7d8c 38bd e37c 53be
00000220: 4b5e 57be e47b 4fbe ebda 2ebd 45f7 48bd
00000230: 5f93 af3d d389 83bd 8d76 8dbd 3121 16be
00000240: 40a3 d1bc 2b20 0d3c 3451 0dbd 9e20 bfbd
00000250: c861 d6bd fb39 dfbd d78e e4bd 7d18 49be
00000260: 87d6 05be 2482 f7bc 698d 25bd eaba 50bd
00000270: 0bd1 70bc 257c a93d 66b0 823a b9a8 1dbe
00000280: b876 f5bd d440 d3bd bf40 e2bb 73c7 963e
00000290: a7d0 b03e da32 df3d 39ad a5bd 8328 03be
000002a0: ba18 cbbb 638b 293e e142 b73e 1b97 b13e
000002b0: 5110 cd3d a9eb 03bd 956a fbbd 5bf6 c9bb
000002c0: 40d5 153e 86d6 513e 5fda ef3d a639 d7bd
000002d0: 893c 96bd f5c6 d8bb 9cee 543d 40ae b93c
000002e0: 2946 b83d b019 b03c 0297 82bd ab8c 40bc
000002f0: be9b b8bd 24bf 06bd 64e3 be3c 27ec ccbc
00000300: 4eff 10bd 2af4 81bd d646 bebd b993 c6bd
00000310: 5971 56bd 1402 1ebd 5ba1 0bbe 04e8 21bd
00000320: bb57 dc3b 64ed bebd 2cb4 2ebb e7df 68bd
00000330: a6fb f9bd 6b3c 35bd f60c 043e e0e5 d53d
00000340: f4ae 0d3d 978a 1fbd 7874 afbd d144 093d
00000350: 71e5 c03e 3220 073f b22b 843e 0070 a1bc
00000360: d7ae 13bd 83d0 a5bd 442a 553e df8a 123f
00000370: b045 1b3f f4e9 a13e 9de9 c73c 02b5 6cbb
00000380: d9a8 b43c 792b 743e 8519 933e a3d4 473e
00000390: a1c8 8c3b 74bc e3bb ced8 273d dfc8 ff3a
000003a0: 18f6 663d 793f c63d 374e 9ebd f9ca a3bd
000003b0: 75a2 293a 8c3c 9b3a b0d8 82bd c20f 6d3c
000003c0: be66 76bd 27a9 8cbd 4b43 623d f805 babd
000003d0: 1957 6abd fb68 863d 1d45 d0bd 583d 8dbd
000003e0: f143 bebd c0c7 12bd 192b 72bd a109 743d
000003f0: 6593 b23c b862 0ebe 056d 4ebc 5f23 12bc
-0.06263909 0.025538124 0.057305712 0.093502305 0.0058276267 0.08563001 -0.03372504 -0.04435219
0.041630443 0.12507316 0.019350857 0.13795587 0.004141409 -0.011003637 -0.029281707 0.081189506
0.060087785 0.015458441 0.018903999 0.043134447 -0.023019671 0.11655053 -0.017276924 0.030350437
0.07072822 0.08414058 0.059480414 0.1468077 0.0069694063 0.08761147 0.056016415 -0.08883183
0.03135679 0.10054104 0.039192416 0.12603194 0.05196065 -0.024510073 0.0060760803 0.10405313
0.025635643 0.027663 0.12161718 0.116910055 -0.006162845 0.014331085 0.04254838 0.0214668
-0.02579871 0.026910132 0.008712122 0.0046147993 0.009546463 -0.011279526 0.072245 0.07535744
-0.049754728 0.11647808 0.02597088 -0.010103684 0.10017381 0.009016202 0.0396295 0.041557606
0.02461163 0.007848264 0.03581483 0.011661786 0.11336403 0.07493428 0.0287529 -0.057218153
-0.013698732 -0.119258754 -0.0076801297 0.0096558 -0.04326391 0.062908076 -0.03904913 -0.049264748
-0.1112701 -0.109320916 -0.0012507389 0.08755999 0.049804155 0.07348042 -0.07772106 -0.051672656
-0.018344915 0.050741415 0.09645148 0.0044061453 0.007494146 0.015844032 -0.038264398 0.082479104
0.03598465 0.07900149 0.045495745 0.050563607 0.09408568 0.052533396 -0.037265535 0.009592256
0.048859194 0.015375001 0.010626526 -0.0815554 -0.06995643 -0.0066866004 -0.012555795 0.04112807
0.0050074975 -0.07217702 -0.14590615 -0.16237137 -0.15963918 -0.033121068 0.035344996 0.025575614
-0.05389571 -0.13391991 -0.2961285 -0.24674246 -0.014068969 -0.069672644 -0.065250725 -0.059607767
-0.31598246 -0.35588604 -0.22227506 -0.055921 -0.08721498 0.0035681466 -0.045055855 -0.20653109
-0.21032064 -0.20262104 -0.042689245 -0.04906394 0.08573031 -0.06422772 -0.069073774 -0.14661099
-0.025590539 0.0086136265 -0.03450127 -0.09332393 -0.10467869 -0.10899731 -0.11160057 -0.19638248
-0.13070117 -0.030213423 -0.040418062 -0.050959505 -0.014698277 0.08275632 0.0009970784 -0.15396394
-0.119855344 -0.10315099 -0.006904691 0.29449043 0.3453419 0.10898371 -0.0808968 -0.12808423
-0.006198016 0.16557078 0.35793212 0.34685597 0.10012878 -0.032207165 -0.12276188 -0.006163401
0.1463213 0.2049199 0.11711573 -0.105090424 -0.07335765 -0.0066155144 0.051985368 0.022666097
0.08997757 0.021496624 -0.06376459 -0.011752288 -0.090140805 -0.03289713 0.023301788 -0.02501495
-0.035399728 -0.06345399 -0.09290855 -0.096961446 -0.05235419 -0.0385762 -0.13635771 -0.039527908
0.0067243255 -0.093226224 -0.0026657684 -0.056854155 -0.12206201 -0.044247072 0.12895569 0.10444236
0.034590676 -0.03895053 -0.085671365 0.033512894 0.3767505 0.527835 0.25814587 -0.019706726
-0.036055412 -0.08096411 0.20816904 0.5724315 0.6065321 0.31623805 0.024403388 -0.0036118631
0.02205317 0.23844709 0.28730407 0.19514708 0.0042963778 -0.0069499556 0.040978245 0.001951482
0.056387037 0.09680075 -0.07729762 -0.07997698 0.00064710464 0.0011843606 -0.06388986 0.014469089
-0.060156576 -0.06868201 0.055239957 -0.0908317 -0.05721197 0.06562992 -0.10169432 -0.06896466
-0.092903025 -0.035835028 -0.059123132 0.059579495 0.021798799 -0.13904846 -0.0125992345 -0.008919566

encoder.model.1.bias f4 [16]
00000000: 336f 073d dbc5 6bbc 8e29 9ebd f35c 85bd
00000010: 524f bc39 7e3f 4dbd 576f 303c eae6 693d
00000020: 316c 0c3d b44f 84bd 79b6 a9ba 04e8 983d
00000030: 7ecd 2cbd 9a73 52bd 5c74 ac3b e543 3abd
0.033065032 -0.014390434 -0.0772277 -0.06511869 0.00035917253 -0.05010938 0.010768733 0.057104982
0.034282867 -0.06460515 -0.0012948058 0.074661285 -0.04218816 -0.051379777 0.0052628946 -0.045474906

encoder.model.4.weight f4 [32, 16, 3, 3]
00000000: aca7 f7bd 62e4 92be 17b0 52be dbfa 2ebe
00000010: 0cd7 65be 9693 9bbe 3f72 cabd d11c 51be
00000020: a3ee 55be a4f1 07be 648a 96bd 97bc dc3c
00000030: b6b5 bcbc 1cfa 88bd 92b6 843d 8ac4 90bd
00000040: ce04 d7bc 1ba8 183d 9b5b ba3d 255c 1a3e
00000050: ba34 093e 4044 c93d a55f 793d 3f70 ce3d
00000060: 724f 53bd 4b1d ce3d bd24 923d d8cd f7bd
00000070: c9dc 033c 28d5 9f3d 00f0 0a3d 5c97 a73c
00000080: 0e22 8c3c d7e1 54bd 0394 ac3c 6f91 d83d
00000090: 1be5 d9bc e03b 82bd dfe4 c9bd 11c5 9abc
000000a0: 37f5 aabd 0f44 43be 3fe7 a8bd 38b3 32be
000000b0: cc4b 4dbe 2441 9d3a 7330 6dbd 28d5 c33a
000000c0: 29ea 103d 588b 8c3d 49d7 413d cddd f33c
000000d0: 760e 033e 130d 263d 309b 473e 230e c73d
000000e0: 3452 8d3d c474 043e ad94 e63d 5522 a83d
000000f0: fbef 113e 6458 96bc da33 4f3d 2e04 8bbc
00000100: e6a4 053d a0d8 873c fbfb e3bd 8f9e 0ebd
00000110: 7d0c 883d 9b8f c5bd be12 edbd 5d1e aebc
00000120: 73a6 d3bd 9cc8 1d3e 78f7 4e3d f890 f73c
00000130: 3453 c83d 35cf ad3d 4aaf f73c 501f 1f3e
00000140: 40f8 8ebc 53ac 6cbd 8185 e63c 3fcf 973d
00000150: 3237 393c f56c 15bc f493 99bd 30a5 ee3c
00000160: dc87 6ebb 0b69 bbbc 9b41 1abd 8ac0 37bd
00000170: 224f 913c 1438 da3c 0cb7 1d3e aef4 3d3e
00000180: 303b cc3d 664e 443e 1ab3 323e f078 183e
00000190: 9ff8 d13d fd7e f63d f4e3 a73d 2383 83bc
000001a0: c4eb b93d c9c8 d4bc c6e3 5639 10b7 05bd
000001b0: ac56 9bbc 477d 313d 4668 22bd ffa0 babc
000001c0: 7bd0 9c3d 75bb 19bd 992f 3c3b c907 66bc
000001d0: c1d7 c53d 940d 833d 4e5f 7cbd 3f67 503d
000001e0: 94ae 8bbd 6685 84bc 700d fc3c ee03 5c3d
000001f0: 6c62 6e3d 7307 d03d 4b35 313d 03a0 c73d
00000200: 477c 103c 5803 1abd 8c92 7fbc 194c b0bc
00000210: 17ed 6e3c 0e15 72ba 8d27 893c 3791 27be
00000220: c128 f63c 2d0a 43ba f9c7 763d c538 873e
00000230: 88bb b13d 0bc6 0cbc fd96 433e 4118 b13d
00000240: efe5 793d efab 133d 7490 e7bd d037 3e3d
00000250: d6a2 47bd b7f9 4abd e631 86bb 7d88 05bd
00000260: 7daa 42bb 6cc8 013e ba59 8f3d 894e 413c
00000270: 050c 293b cc79 d33d 2e85 3f3d e81c c03d
00000280: 82ed b13d b4ad 4cbd b69d 2a3d 6e78 1f3c
00000290: 6763 423d 6cc9 b23d 5ecc 46bd 4e2a 883c
000002a0: eb1d 2e3d 2c09 27be b221 92bd 21f9 003e
000002b0: d9b1 bcbd 483b 35be 6154 bb3d 6a6d 1bbe
000002c0: 95de b1be 3bcb 0f3e ae7c 4fbd 38f9 13be
000002d0: 0d00 19bd fc39 fdbd 8a5e 01be 49cb 4d3c
000002e0: 049b 81bd f477 23be 7c8f 10bd a2e2 11bb
000002f0: f116 39bd 411f a6bd bdfc 84bd 083e bcbd
00000300: 336a 223e c80e dcbb 467c 2cbe 671d 643e
00000310: 3feb 173d cf87 16bd 8737 523d f405 d7bc
00000320: f86b 0abd 08c0 1fbc 5648 05bd 0581 50bd
00000330: 9371 5b3d e075 c8bc a4a7 c9bd 3620 713d
00000340: 235c 2abd cd2d 523d 139e 273e 4cb2 a5bd
00000350: 34a8 42be d32e 983e d4fa 30bc 435b 26be
00000360: 2716 0b3e e963 5cbd 2456 a0be 6897 323e
00000370: ae0b 0c3e 0a82 b83b 02d2 0d3e 622d 4c3e
00000380: e6de 9e3d 6292 04bc f010 25bd 8938 8a3c
00000390: 14ca a53c cf9c 1a3d 9e6b fbbc ec30 2f3c
000003a0: 7c02 d4bc 39d7 61bd f8a1 ec3c 6c2b 9bbc
000003b0: c0c9 b53c c136 8e3d 7f40 b1bd b675 bbbd
000003c0: a4f7 9b3d 0531 56bd 721e 593c 86d8 6bbd
000003d0: 2f14 8cbd 306f 893d fb4e cd3d 4083 79bd
000003e0: 89da 9e3d dc8d 01bd a412 34be c87f eebd
000003f0: 058d d13c 9625 c3bd dbb0 51bd 67f1 86bd
-0.12092528 -0.28689867 -0.20574985 -0.17087881 -0.22445315 -0.30386037 -0.09885072 -0.20421149
-0.20891814 -0.13275772 -0.07350615 0.026945395 -0.023035865 -0.066883296 0.06480135 -0.07068737
-0.026247408 0.037269693 0.090995036 0.15074213 0.1339902 0.09827471 0.06088223 0.10080003
-0.051589437 0.10064181 0.071359135 -0.120998085 0.008048245 0.07804328 0.033920288 0.020457916
0.017106082 -0.05197319 0.021066671 0.10574614 -0.026598504 -0.063590765 -0.09858107 -0.018892797
-0.08347552 -0.19068931 -0.08247232 -0.17451179 -0.20048445 0.0011997563 -0.057907533 0.0014940845
0.035379563 0.06862515 0.047324453 0.029768849 0.12798485 0.040539812 0.19492793 0.09719493
0.069004446 0.12935168 0.112588264 0.08209673 0.14251702 -0.018352695 0.05058656 -0.016969766
0.032627963 0.016582787 -0.11132046 -0.034819182 0.06643007 -0.09646531 -0.115758404 -0.021254713
-0.10334482 0.15408558 0.050528973 0.030220494 0.09781495 0.08486787 0.030234952 0.15539289
-0.01745236 -0.05778153 0.028139831 0.07412576 0.0113046635 -0.009120216 -0.07498923 0.029131502
-0.0036396896 -0.022877237 -0.037660223 -0.044861354 0.017737929 0.026638068 0.15401858 0.18550369
0.099722266 0.19170532 0.17451134 0.14889884 0.10252499 0.1203594 0.081977755 -0.016053742
0.09078172 -0.025974648 0.00020493483 -0.032645285 -0.018962227 0.043332364 -0.039650224 -0.022781847
0.07656952 -0.03753229 0.0028714894 -0.014039942 0.096602924 0.06399074 -0.061614327 0.050879713
-0.068204075 -0.01617689 0.030768126 0.053714685 0.05819933 0.10157671 0.043263715 0.09747317
0.0088186925 -0.037600845 -0.015598904 -0.021520661 0.014582894 -0.0009234705 0.016742492 -0.16363989
0.03004873 -0.0007440176 0.060249303 0.264105 0.08678347 -0.008592139 0.19100566 0.08647204
0.061010297 0.03605264 -0.11306849 0.046439946 -0.048739277 -0.049554553 -0.004095304 -0.03260087
-0.002970367 0.12674111 0.06999536 0.011798509 0.0025794518 0.10325965 0.04675787 0.093805134
0.08687879 -0.049970344 0.04165431 0.0097333025 0.04745808 0.087298244 -0.048534743 0.016621735
0.042509 -0.16312093 -0.07135333 0.12595035 -0.09213609 -0.17698395 0.091469534 -0.15178457
-0.3474013 0.1404237 -0.050656013 -0.14450538 -0.037353564 -0.12364575 -0.1263372 0.012560674
-0.06328395 -0.15963727 -0.035293087 -0.0022260328 -0.045187894 -0.0811143 -0.064935185 -0.09191519
0.15860824 -0.0067156292 -0.16844282 0.22276841 0.037089583 -0.03675061 0.051322486 -0.026247956
-0.033794373 -0.009750374 -0.032539688 -0.050904293 0.05357511 -0.02447027 -0.09846428 0.05886861
-0.041591775 0.05131321 0.16368894 -0.08090648 -0.19009477 0.29723224 -0.01080199 -0.16245751
0.13582669 -0.05380622 -0.3131572 0.1744057 0.1367633 0.0056307362 0.13849643 0.19939187
0.07757358 -0.008091541 -0.040299356 0.016872661 0.02023796 0.0377472 -0.030690964 0.010692816
-0.02588009 -0.055136893 0.028885826 -0.018941604 0.022190928 0.06944037 -0.0865488 -0.09153311
0.07615593 -0.052292842 0.013251888 -0.05757954 -0.06839787 0.067106605 0.1002483 -0.060916185
0.07756526 -0.03162943 -0.17585236 -0.11645466 0.025579939 -0.09528653 -0.051194053 -0.065890126

encoder.model.4.bias f4 [32]
00000000: 8493 3a3c 8e44 7e3d 014b a3bd dbad 103d
00000010: fed4 2ebd 7a76 863d c85f 6ebc ecf9 943d
00000020: 4f43 c4bc 1f1b 14bd 952e b9bb 410e 873d
00000030: 0cd4 95bc 489e ac3b 63fb 9cbd f076 3dbd
00000040: 30ff 8abd 043d a73d 2bcf e8bc 3547 0fbd
00000050: 24b1 243d 13ec 2ebd 8aeb 3fbd 9569 58bd
00000060: 64ce 923a 1779 6fbd dc54 39bd a4d9 55bd
00000070: 2210 1c3c 7e22 573c b478 2cbd 497b 263b
0.0113877095 0.062077098 -0.0797329 0.03532205 -0.042683594 0.06565566 -0.014549203 0.07274231
-0.023957876 -0.036158677 -0.005651305 0.065945156 -0.018289588 0.005267892 -0.07665136 -0.046256006
-0.067869544 0.08165935 -0.028419098 -0.034980018 0.040207997 -0.042705607 -0.046855487 -0.052835066
0.0011200425 -0.05846509 -0.045246944 -0.05220951 0.009525331 0.013130782 -0.0421073 0.0025403074

encoder.model.7.weight f4 [64, 32, 3, 3]
00000000: 8740 a7ba 317c e6bd 8891 21bd 2f44 03be
00000010: 88cd 883c 702e a8ba 0cfb 00bd f35b 533d
00000020: 6765 8e3c 516d 313d 00d8 fb3b 1e58 433c
00000030: 055d 953d 893f db3d 7ff9 9a3e 2b48 06bd
00000040: 121b a93c 5400 0e3e 3bf5 90bc 63e7 27bb
00000050: b30a 07bd 7ee8 033d e0ac 59be 18d8 34bd
00000060: 3a22 fbbc f76f d8be c1ed 0cbe 1d9c 40bd
00000070: 1068 b4bd 11e1 f3bd 3606 5fbd 2c00 6b3c
00000080: 347a 4abd baf9 9f3c b81e de3d d81d 8e3d
00000090: 87e8 7fbc abbd 97bd 4ac9 a0bb f88c 76bd
000000a0: 8dc7 21bd 285a 1abd e1ab b8bd 604e cfbd
000000b0: 41f3 62bd f99f 803b cda9 193d db7a 123e
000000c0: 23b7 95bd d27a a4bc 0fd2 77bd 94e3 9abd
000000d0: 15cc 9d3d b923 cabd bc46 8b3d 00a1 d73c
000000e0: 83ce b3bc aa6a b93d 0a96 4cbd 6ea2 2fbc
000000f0: a887 c93c c9ef a03d 2cb3 223d 7857 01bd
00000100: f703 013d 2bfa 703c 80b4 913d 2d00 34bc
00000110: ebf4 9e3c 6c5b df3c 8a5c acbe d741 f0bd
00000120: 3f6d 60bc 650d bfbb 18d4 543d 888b b9bb
00000130: a7a3 0a3e 4417 413e e7e4 923d d73d 973e
00000140: 85f1 493e 2337 fc3b f19d c1bc b1f6 583c
00000150: 9c12 893d d8dc 31be 7f43 07be b741 25bd
00000160: a17e 97be b867 8bbe f472 dd39 c492 943c
00000170: 8393 343d c154 bb3d 8e08 26be 571c d3bd
00000180: 82f8 12bd 624e 4dbe a6ac bdbd 7a0f 2b3d
00000190: 1bf9 7cbd 1566 0d3d d2dc 96bc 5436 d63c
000001a0: 78e7 6bbc 7d81 613b 1645 24bc 3657 663d
000001b0: 94cc 1a3d ce5b 5cbd a729 08b8 995f 80bc
000001c0: 5552 82bc 65cd a93c a418 16bd f966 083e
000001d0: 0301 0bbd d8f7 123d 2d8e 883d b1e9 be3d
000001e0: 4c79 363d 0b76 503d baef 073d 85f3 d73c
000001f0: 1018 3c3a aef0 11bc 9e1c 263d c6e7 933c
00000200: 0b3b 733b f1f4 20bd f2d1 b7bd 3af4 66bd
00000210: 07d6 a2bd 3dbf a93d a320 56bd 761d 12bd
00000220: 91bd 28bc 6dc8 393d 6f7f dcbd 19db c8bc
00000230: 6a03 77bd 1e8a 1ebe e230 75be 5ddc 93bc
00000240: f236 c73c 9f41 d9bd 4ffb d2bc 8721 22bd
00000250: 3a44 8dbd 7c64 88bb 0c25 65bd 68d6 c13d
00000260: 7c82 8c3d 0017 38bd 6e07 403c 5069 9f3c
00000270: 52d5 af3a 7b15 8dbc 0a2b 233c 4d98 9bbd
00000280: 90f3 583c 7df1 5c3c 1a93 b13c 1ff5 6e3c
00000290: d020 733d 520d a2bd 7d4e 38bc 7015 22bc
000002a0: ce28 9c3c b049 a23d 52e0 fa3c 30e8 6b3c
000002b0: a531 743c 32f2 b6bc 0286 863b b302 11bd
000002c0: 8538 44bd 22b4 4abd 490e 923c 0f6c cfbd
000002d0: 9fe9 203c e286 283d 8b82 f2bb 2049 e83d
000002e0: a137 403e abcd 103e ab58 1abd 9ff0 dbbd
000002f0: e8e5 193e dc96 aa3c aa0c cc3c 1c68 4f3d
00000300: 9fd8 2f3d c320 513d dfb1 e83d 906b e13c
00000310: 8a7f a93d 2799 173e c1e8 ff3d 3021 f83d
00000320: 4c59 103e 42c7 223e f192 523d db66 1c3e
00000330: 0ccb 963d e590 a03c 9847 1f3d bf07 48bd
00000340: ae2f 09bd b135 8ebc 3a15 0fbd 4f4b 43bd
00000350: f3f2 73bc 5a3b a9bd 5df0 13bd d9b5 28bc
00000360: 185d 50bc 3952 453c 6182 5c3d e4f6 19bd
00000370: 4ff6 60bc cf40 c23d 0b00 ca3c 7b42 6e3d
00000380: c46c 483b e3e4 203c 15cb 48bd 5a2d 0c3d
00000390: a855 a13d 523b 013e e00a 053e f9da 063d
000003a0: 7cf0 a6bd 1725 003e 27ee 13bd 2f81 b2bd
000003b0: 81b4 54bd 72a7 5abd 764f 4c3d 2b2c 42bd
000003c0: f7db c33d 815e c23e b1fc 6a3e 82eb 19bd
000003d0: fe26 06be 0187 efbd 7783 90bd de42 4a3c
000003e0: 0381 65bd a3c3 e6bd ee6e 19bd 766f 2dbd
000003f0: 6b40 453d 6d06 8c3d c6fd d23c a2e5 023e
-0.001276032 -0.112541564 -0.03944543 -0.12818979 0.016699567 -0.0012831222 -0.031489417 0.05160136
0.017382337 0.043317143 0.0076856613 0.011922864 0.07293133 0.10705478 0.30268475 -0.03278367
0.020642791 0.13867313 -0.01769506 -0.0025620095 -0.032969188 0.032204144 -0.21257353 -0.044151396
-0.030655969 -0.42272922 -0.13762571 -0.04702388 -0.08808911 -0.119081624 -0.054449283 0.014343303
-0.04943295 0.019528259 0.10845703 0.06939286 -0.015619404 -0.07409223 -0.004906808 -0.060193032
-0.039496947 -0.037683636 -0.09017158 -0.10122371 -0.055407766 0.00392532 0.03751545 0.14304678
-0.07310321 -0.020078097 -0.06050306 -0.07562938 0.07704941 -0.09870095 0.06800601 0.026321888
-0.021949058 0.09053548 -0.049947776 -0.010719879 0.024600819 0.078582354 0.039721653 -0.031577557
0.03149792 0.014708082 0.07114506 -0.01098637 0.019403895 0.027265273 -0.33664352 -0.11731308
-0.013697921 -0.005830454 0.05196008 -0.0056623854 0.13538991 0.18856531 0.07172566 0.29539368
0.19721039 0.0076970025 -0.023634883 0.01324241 0.066930026 -0.17369401 -0.13209341 -0.040345874
-0.29588798 -0.2722757 0.00042238052 0.01813639 0.04408599 0.09147025 -0.16214201 -0.1030814
-0.035881527 -0.20049432 -0.09261446 0.041762806 -0.061761003 0.03452118 -0.018415842 0.026148953
-0.014398448 0.0034409456 -0.010026237 0.056235515 0.037792757 -0.05379849 -3.246372e-05 -0.015670585
-0.0159084 0.020727823 -0.036644593 0.13320531 -0.03393651 0.035880893 0.06667743 0.09321917
0.04454927 0.050893825 0.033187605 0.026361236 0.00071752165 -0.00890748 0.040554635 0.018054854
0.003711405 -0.039296094 -0.08975591 -0.056385256 -0.07950979 0.08288429 -0.05227722 -0.035672627
-0.010299102 0.045357157 -0.107664935 -0.024518536 -0.06030599 -0.15482375 -0.23944429 -0.018049413
0.024318192 -0.10608219 -0.025754599 -0.039582755 -0.06897779 -0.0041623693 -0.055943534 0.09464723
0.068608254 -0.04494381 0.011720521 0.019459397 0.0013415015 -0.017222157 0.009958992 -0.075974084
0.013241664 0.01348531 0.021676589 0.014584809 0.059357464 -0.07912697 -0.011249182 -0.009892806
0.019062426 0.07924211 0.030624542 0.0143986195 0.014904414 -0.022332285 0.0041053304 -0.035402965
-0.047905464 -0.049488194 0.017829077 -0.101280324 0.009821325 0.04114426 -0.007400816 0.113420725
0.1877122 0.14140956 -0.037682217 -0.10739254 0.15029109 0.020823888 0.024908382 0.050636396
0.042931195 0.051056635 0.11362051 0.02751711 0.08276279 0.14804517 0.12495566 0.12115705
0.14096564 0.15896323 0.051409665 0.15273611 0.07362947 0.019600341 0.038886636 -0.048835512
-0.033492737 -0.017359586 -0.034932353 -0.04767924 -0.014889467 -0.082632735 -0.0361179 -0.010297262
-0.012717508 0.012043529 0.053835277 -0.03758897 -0.0137306 0.094850175 0.024658224 0.05816887
0.0030582407 0.009820196 -0.0490218 0.034222938 0.07877666 0.12620285 0.1299243 0.032923672
-0.081513375 0.12514149 -0.03611579 -0.08716046 -0.051929954 -0.053382345 0.049880467 -0.047405403
0.09563439 0.37962726 0.22947957 -0.037578113 -0.13100812 -0.11695672 -0.07056325 0.012345044
-0.05603124 -0.112677835 -0.037459306 -0.042342626 0.048157137 0.06837163 0.025755774 0.1278291

encoder.model.7.bias f4 [64]
00000000: 1513 13bd a24a 52bd e643 6c3d fbef 42bd
00000010: 6a75 06bd 3df7 413d 6016 f53c 6f22 0d3d
00000020: 787f b43c 66db 3dbd b440 013c 22e2 0a3d
00000030: a29e 7939 61c3 2f3d fdd3 2dbd 6670 1e3d
00000040: 8fc5 fcba 167e 57bb 9a3a 2b3d 58bf 6dbc
00000050: d3f7 ee3c d99d 44bc 0464 60bc 8598 79bb
00000060: 2abf 933c adf1 41bd 75b6 b7bb 62b6 3ebd
00000070: 370c 4a3c 43f3 163d 8744 a33c 790c 063d
00000080: 623a 2b3c d4ba 55bd b976 79bc a91c 343c
00000090: 6e22 983a e160 023d 8445 463d 04aa 70bd
000000a0: 0bea 14bd 2194 6a3d 1f3a fc3c 3a38 573d
000000b0: 430e 303d d7a3 c03c 3094 7dbc 322e 623d
000000c0: f23e c63c 343b 0c3d f65a 483d 1d5d c83c
000000d0: 1928 aabc 96d8 d8bc c3e1 3e3d ebcc 45bd
000000e0: 2cb9 bc3c 77f3 f2bb 3c84 3dbd 0909 7b3c
000000f0: 5354 6c3d a610 403d ec86 d0bc 3c9a 32bd
-0.03590687 -0.051340707 0.05768194 -0.047592144 -0.03282682 0.047354925 0.029917896 0.034456667
0.022033438 -0.046351813 0.007888962 0.033907063 0.00023805586 0.042910937 -0.042438496 0.03868141
-0.0019284951 -0.003288155 0.041803934 -0.014510952 0.029170906 -0.012000524 -0.013695721 -0.0038085293
0.01803549 -0.04734962 -0.0056064674 -0.046560653 0.012332014 0.036853086 0.019930137 0.03272674
0.010450931 -0.052180126 -0.01522606 0.010993161 0.001160694 0.031830672 0.04840614 -0.05875589
-0.036356013 0.057270173 0.030789433 0.052543856 0.04298235 0.023515625 -0.015477225 0.055219837
0.024199937 0.034236148 0.048914872 0.024458462 -0.020771073 -0.026470464 0.046602022 -0.048291128
0.023037516 -0.007414277 -0.046268687 0.015321978 0.057697605 0.046890877 -0.02545496 -0.04360412

encoder.model.10.weight f4 [128, 64, 3, 3]
00000000: 15bb 64bb 3819 f03c 6edd 0ebd 3936 4cbd
00000010: d616 0eba ef6d 78bd f799 abbd b59d cf3c
00000020: 6ebe 1a3d c260 08bd 38d3 b83a 1c85 1e3d
00000030: 844f 173d bfe0 1f3e e5c9 273e afaa 313b
00000040: 0b27 823d ec25 9a3b bc1c 06bd d59e 2d3c
00000050: facd 9dbc 6741 bbbd 8a32 62bd 7149 00bd
00000060: c797 00be af72 05bd f118 63bd 709f 67bd
00000070: b1f3 7fbe 0951 e3bd 5c03 67bd 0655 89be
00000080: ecd1 e9bd ebde b13d 2b16 9bbd bd14 31bd
00000090: 2a13 01be 4c26 1ebd 6c9f 223b 6253 b1bd
000000a0: 390e fe3c 4d9e 1cbd 6d76 15bd c162 92bc
000000b0: a13a 05be 8a25 553c fe8c 6d3d 8170 c83d
000000c0: ae7e 11bc 231d aa3d 8cb2 c43d 7d8c ffbb
000000d0: 6655 d23d 7b2b 0a3e bc4c 6e3d 2b56 413d
000000e0: 8ba8 783d e6d5 c33b b202 0e3d 9537 943d
000000f0: 7840 053c 13ad 883d d63c a93d 5274 02be
00000100: 323a 81be 0c51 08be eae2 67be 03be 81be
00000110: d59a 1cbe a0b2 66be f222 56be 7473 2fbe
00000120: a6fa a13c 957e 173d 5034 34bc 75bc 743d
00000130: 12b3 833a 3fd6 e43c 4c63 9b3c 4a64 2ebc
00000140: c73d b4bd 3971 28bd eb7f ebbc 1189 393d
00000150: 8490 a0bd 51e8 acbd d7e4 5bbc 9cf7 c8bd
00000160: a49e c3bc b7eb b1bc b99d f53c c3bc d23d
00000170: 0541 b13d e8b2 0e3c e272 85bb fee4 8a3c
00000180: 0d7d 2d3c db53 883c 1b41 2cbc 0757 b13c
00000190: 1770 a43d 6497 093d 3c63 27bc b27a 3d3d
000001a0: 37f1 f23c 1704 913c f5db 3b3d dfd3 8e3d
000001b0: 6037 ea3c e0f1 f23d f3e8 b23d 4a51 be3d
000001c0: 870b d53d 23e5 5c3d 49b9 f83d 5f99 3d3e
000001d0: 2f15 063e b31b 4dbd abc8 f8bc d153 68bd
000001e0: abc2 3bbd 1c5e 6f3d 3bde acbd deb8 35bd
000001f0: 0e45 463d e74f 9f3b 375c 4dbc ded4 993d
00000200: ca98 b8bd 72d1 133e dfbe 6d3e 3481 ed3d
00000210: f443 db3d 4a7e 473e b8c8 e53d 7082 7a3c
00000220: 9ae6 12bb 9253 2c3d 6380 25ba 7d8e e53d
00000230: c2cd 0e3d e7a2 a2bc 61f3 ca3c 1272 8d3d
00000240: 1d4b 99bc 11a4 78bd e952 90bc 50f6 323c
00000250: 4ea4 32bd 3195 d2bd 84ee 6f3c ed38 80bd
00000260: 8680 89bd 755b 95bd eae6 40be b6f9 05be
00000270: 1089 37be 3ffd b1be ab49 3abe 7694 3abe
00000280: 1fb6 38be 5e6b e9bd d122 373c 8ba4 c1bc
00000290: 6a61 d4ba bb4f b83d f16f 633d f464 dd3d
000002a0: 4254 dd3d d8d4 463d c8ec 0e3d d3ce 0e3c
000002b0: ae63 d93b c06d 783d d168 f63c 818e c53b
000002c0: 002b 3e3d 5a87 873a c5e4 7abd 915c 24bd
000002d0: 8317 323c dbf8 0e3d 43db c3bc aa98 18bd
000002e0: cded b2bd 3a9a 73bd 0a89 97bc 9f1b dc3c
000002f0: d5dd d9bc 6464 d63d ba14 973d 330d 9c3d
00000300: 0577 f4bd daa1 dfbc c25d 033d d782 62bd
00000310: 59ef d53d 9b13 143e 09b6 08bd a172 dcbc
00000320: 5a2c 3e3d fddb 6bbd b55c 24bc 8c1b db3d
00000330: 7cf8 89bc cf2c b5bc 291f 473d 0802 a7bd
00000340: 5a99 f4bc b58e 40bc c758 54bd 4995 623d
00000350: dce9 103d 34c9 b7bd 1cb6 a43c bd80 b3ba
00000360: f438 3dbc 6519 8c3d 33c9 65bd 8236 6d3d
00000370: b1e2 833d 554a 6cbd b53f 7ebc 89ac 273d
00000380: b6f4 d1bd a2f4 53bd 1c91 49bd 45b4 c5bb
00000390: b8b7 73bd 2e59 b9bd 1519 cfbc 82c3 f1bd
000003a0: 27c9 f5bd e681 bcbd 61d8 993d 1152 3f3d
000003b0: fb6a a03d 1dee f43b bd83 3c3d 1d16 c43d
000003c0: 17f3 87bc 0f0a c73d 2759 3f3d 8c1d ddbd
000003d0: b3db 353c 4b98 52bd b0eb ecbd da2b 07bd
000003e0: e087 08bc a32e fabd e555 edbc e115 2dbd
000003f0: 9eec e8bc f63f 4e3d 6c70 b3bc b2a1 0b3d
-0.0034901549 0.0293089 -0.03487914 -0.0498564 -0.0005420273 -0.060651716 -0.08378976 0.025343755
0.037779264 -0.0332954 0.0014101034 0.03870116 0.036941066 0.15613078 0.1638561 0.0027109792
0.06355103 0.0047042277 -0.032742247 0.010596951 -0.019263256 -0.09143334 -0.05522398 -0.03132004
-0.12557898 -0.032580074 -0.055443708 -0.056548536 -0.24995305 -0.110994406 -0.056399688 -0.2682268
-0.114169925 0.08685096 -0.075725876 -0.04323267 -0.12604967 -0.03861074 0.002481426 -0.08658482
0.031012641 -0.038236905 -0.036489893 -0.017869355 -0.13010646 0.013009438 0.05799579 0.097870834
-0.0088803 0.08306339 0.096043676 -0.00779873 0.10270195 0.13493149 0.05817865 0.047201317
0.06070761 0.0059764264 0.03467054 0.07237164 0.008133046 0.06673636 0.08263557 -0.12739685
-0.25239712 -0.13312167 -0.22645155 -0.2534028 -0.15293439 -0.22529078 -0.20911768 -0.17133886
0.019772839 0.036985952 -0.0109988 0.05975004 0.0010047874 0.027934192 0.018968247 -0.010644028
-0.088008456 -0.041123603 -0.02874752 0.045296732 -0.07840064 -0.08442748 -0.013421259 -0.09812853
-0.023879357 -0.021718843 0.029982435 0.1028991 0.086549796 0.008709647 -0.004072533 0.016954895
0.010588896 0.016641548 -0.010513569 0.021647943 0.08029192 0.033591643 -0.01021653 0.04625959
0.029656036 0.017702146 0.045864064 0.06974005 0.028590858 0.1186254 0.08735838 0.092928484
0.10402589 0.05392946 0.12144715 0.18515538 0.13094018 -0.050075244 -0.030369123 -0.05672056
-0.045839947 0.05843936 -0.084408246 -0.044365756 0.0484057 0.00486182 -0.012534193 0.07511304
-0.09013517 0.14435366 0.23217343 0.11596909 0.107063204 0.19481769 0.11219925 0.015289888
-0.0022415281 0.042071886 -0.00063133816 0.11208818 0.034864195 -0.019853069 0.024774255 0.06906523
-0.018712575 -0.06070334 -0.01761766 0.010922983 -0.043613724 -0.10282362 0.014644269 -0.06260858
-0.06713967 -0.07292835 -0.18838087 -0.13083538 -0.17923379 -0.34763524 -0.18192165 -0.18220696
-0.18038224 -0.11397432 0.0111777345 -0.02363803 -0.0016203348 0.089995824 0.055526678 0.10810271
0.108070865 0.048542827 0.03489378 0.008716303 0.006634197 0.06065154 0.030079277 0.0060289507
0.046427727 0.001034002 -0.061253328 -0.04012734 0.010869863 0.034905296 -0.023908263 -0.037254967
-0.08736763 -0.059473254 -0.018497963 0.02686864 -0.026595036 0.10468367 0.07377 0.07619705
-0.11936764 -0.027298857 0.032071836 -0.05530056 0.104460426 0.14460604 -0.033376727 -0.026910128
0.046429016 -0.057582844 -0.010031869 0.106986135 -0.01684212 -0.022116093 0.0486137 -0.08154684
-0.02985828 -0.011752774 -0.051842477 0.05531815 0.035379276 -0.08973923 0.020106368 -0.0013694983
-0.011549223 0.06840781 -0.05610008 0.05791331 0.06439722 -0.057688076 -0.015518119 0.040936027
-0.10251753 -0.051746972 -0.049210653 -0.0060334527 -0.05950138 -0.09050213 -0.025280515 -0.11804868
-0.120012574 -0.09204464 0.07511974 0.046709124 0.07832905 0.0074746744 0.046024073 0.0957453
-0.016595406 0.097187154 0.04671588 -0.10796651 0.011099744 -0.05141477 -0.11568391 -0.033000804
-0.008333176 -0.122159265 -0.028971622 -0.042257193 -0.02843314 0.050353967 -0.021904193 0.03408975

encoder.model.10.bias f4 [128]
00000000: b8e0 153d fe49 223c 8ee8 a83c 9eb7 f8bc
00000010: b4ae 26bd 6430 0d3d e2ee 70bc f191 a43c
00000020: fab9 d13c b05a 14bc 24c1 f33c 7af1 02bd
00000030: 2e55 283d abb2 f03c 4ce0 143d 6443 363b
00000040: 83fb 1f3c 1ee5 6bbc 0713 f7bc b086 fa3b
00000050: 23d2 cabc 994a 153d 29df 193d 5c44 92bc
00000060: 179d 2d3b cc56 0c3b 09be 9dbc b0ec d5bc
00000070: ea70 cabc 51b8 963c 3160 223d 57ef c63c
00000080: d8de 32bc e9e6 e13c a579 513c 98cb a13a
00000090: e183 29bd ae61 1dbd c254 e83c acf4 183b
000000a0: d987 1f3d 9b17 0fbd 79c7 90bc f133 0e3d
000000b0: 6cd7 1a3d b4b4 f3bc 6824 12bd 6f47 82bc
000000c0: 192b 0b3d 6fbf aebc fccf 2b3c 283c 013d
000000d0: 7332 853c 4d94 563b 87f6 b13b 23cb 043c
000000e0: 2ee8 893c a478 abbb aea8 f53b 720b d7bc
000000f0: 6eb1 1abd 7174 193d b954 54bc 82f7 ba3a
00000100: 540d cbba 5512 be3c 4c89 e83c e592 963c
00000110: 63c8 d73c 1cf5 dabc 3cbc 183d c03f d1bb
00000120: c35f f4bb 7c6d 04bd a686 a03c 49ce be3c
00000130: ea32 d2bc fb2f d83b 9bbd 103d 2b95 8f3b
00000140: 6771 a4bc 990d bc3c 38df be3b 766e 1abd
00000150: 98e7 533c 6ca2 bf3c 525d fabc 1f4a dcbc
00000160: 78c9 22bd 6f89 9abb 63cb 253d 389b 15bd
00000170: 5372 60bc 6b08 813c 363c 883c d0c3 febc
00000180: 3a52 563b ca3a 453c d5f0 9cbc 4f71 dcbc
00000190: 20df bd3c c083 1bbd 713f e5bb 1086 93bc
000001a0: 8577 15bd e5db e23c f85f 02bc 3487 11bd
000001b0: 4b60 25bd 6680 b8bc 5426 f2bc 2aba ee3b
000001c0: af73 d5bc 588b 803c c734 28bc d7dd 1fbd
000001d0: 4538 1a3d 20e0 34bb d9fc b1bc c3f9 15bd
000001e0: 01a8 b93c b244 0abc 404e f53c 0b51 63bb
000001f0: 85a3 a13c f50b 0dbd 19c0 483b c7e1 ea3b
0.03659126 0.009905336 0.020618703 -0.030360993 -0.040693954 0.034469977 -0.014705392 0.020089122
0.025601376 -0.009054825 0.029755183 -0.03196857 0.04109686 0.02938207 0.03634672 0.0027811164
0.009764555 -0.0143978875 -0.03016044 0.0076454505 -0.024758404 0.036448095 0.037566338 -0.017854862
0.0026491338 0.002141404 -0.019255655 -0.026113838 -0.024712045 0.018398436 0.039642517 0.024284048
-0.010917388 0.027575927 0.01278535 0.0012344001 -0.041385535 -0.038423233 0.028360728 0.0023339195
0.038947914 -0.03493462 -0.017673241 0.034717504 0.0378031 -0.029749252 -0.03567925 -0.015903203
0.033976648 -0.021331517 0.010486599 0.03155151 0.016259408 0.0032742203 0.0054309997 0.008105072
0.016834345 -0.0052328873 0.007496915 -0.026250575 -0.037766866 0.037464563 -0.012959653 0.0014264437
-0.0015491643 0.0232021 0.02838578 0.018380592 0.026340669 -0.026728205 0.03728889 -0.0063857734
-0.0074577047 -0.032330975 0.019595455 0.023291724 -0.025659043 0.0065975166 0.035337072 0.004381796
-0.020073606 0.022955703 0.0058249496 -0.037703 0.012933634 0.023392878 -0.030562077 -0.026890812
-0.039742917 -0.0047160904 0.040477168 -0.03652498 -0.013699132 0.015751084 0.016630273 -0.03109923
0.003270282 0.012037942 -0.019157806 -0.026909498 0.023177683 -0.037967443 -0.006996088 -0.018008262
-0.036490936 0.027692745 -0.007957451 -0.03552933 -0.040375035 -0.022522163 -0.029559292 0.007285376
-0.026056139 0.015691444 -0.010266489 -0.039029922 0.03765132 -0.002759941 -0.021727012 -0.036615144
0.022663118 -0.00843923 0.02994454 -0.0034685757 0.019731293 -0.03443523 0.0030632077 0.007168028

decoder.model.0.weight f4 [128, 64, 3, 3]
00000000: d1a7 01be f09e 113d 7426 1ebe c9a2 8fbd
00000010: 9104 a73d 1a5d 7e3d 3019 d0bd 1a08 2f3d
00000020: 7756 62be 0159 2ebe 11f3 043d c71d 14be
00000030: c93c 833d e9b7 b43c 58c5 8e3d 7f30 50be
00000040: 85a8 963d 1075 30be 37d6 eb3c af00 903d
00000050: 432c f53b 391e ec3c 01b4 dbbd d666 243c
00000060: 084b 90bc 99a1 a03c 0898 6c3d fefb 143d
00000070: 048f 1e3d 4aea 553c 2070 443d 5a8a 143d
00000080: 779d 013d e57e babb 854c cf3d 6d2c 08bd
00000090: 11a7 8cbe 6eec a53e 5f7a aabe b369 d03d
000000a0: 4060 f83d 289c ef3d bd83 acbe bb6e 893e
000000b0: 9786 c4be 2b6d 44bd 6757 40be 4820 c4bd
000000c0: 3a21 6cbe e51e 94be 9aa8 9bbe e4c8 4cbe
000000d0: 130f 8dbe bb7b 97be c74d 03bd a8db 0d3c
000000e0: 29a1 3dbd 79a4 37bd cdd2 193d 6245 aabc
000000f0: bfcf 24bd 7051 ddbc 0751 e4bc bf7b ecbc
00000100: 81fc abbc a4b9 d7bd c438 23bd 9264 bdbc
00000110: 8c98 e5bc 0157 67bb fffe f5bb ae00 6bbd
00000120: 849b db3b 3b99 ce3a 0a20 c3bc b73c 8ebd
00000130: 7611 933c f39b 9ebe a5b1 2b3d 6bd2 85be
00000140: fb61 c5bc 4590 5bbd 7863 7a3d 97e0 86bd
00000150: 23ff b3bd 13c2 6bbd 4710 0abd 1266 0d3d
00000160: d94a 9a3d 4704 1b3d 2f24 373d 5c93 07bc
00000170: 4c03 373a f3d3 bf3d ed87 373e 61f5 75bd
00000180: 1089 303c 7ce1 33be 6a6d 73bd d018 333d
00000190: f981 fcbc d632 8fbc aebf 5fbe def5 32be
000001a0: 8fe0 30be f4b7 903d 673e 333c fadd cdbc
000001b0: 0baf 713d c749 a0bd 5b3f 8e3d c855 80bd
000001c0: a2a6 09be 31ce 17be 32f1 8abd d025 30be
000001d0: bda0 a9bd a743 803d 2842 b33c 298a 9dbb
000001e0: fab4 8fbc 6632 3ebd 9ee5 ecbd c533 2c3d
000001f0: 06bb 7c3d adf3 97bc 662f 063e 1e42 21bd
00000200: ed16 523e 3435 c5bd 9396 1b3c 4c0f 96bd
00000210: 0a36 233e c3bd eabd 16bb 943e cbc2 89bd
00000220: 623e 21bd cbe7 1b3c e5c9 33bd b855 72bd
00000230: 5c68 bbbd 3081 5ebc 1758 133d 8b6c 063e
00000240: 0106 833d 4c80 863d 6021 3fbd ef94 35bd
00000250: 1ef4 66bc 10db 41bd 9d5d 6dbc 2ead c33d
00000260: 1caf 6cbd e1d7 1cbe 6559 8fbe 3211 8abe
00000270: 854f 0b3c 34a0 223e 8326 aebc 4a4d ef3b
00000280: 1336 f5bc efc6 f43b f466 debd 7d8e 6abd
00000290: 5b98 4ebd 0ee4 493b 75a8 89bd 0855 00bd
000002a0: f92e 99bd 8da6 ffbb 2b8b 78bd d230 8bbe
000002b0: 6a24 3abc ef2d 56be 6e33 92bd 9a99 2bbd
000002c0: b851 1c3d bd10 84be ff2c 463c 1f63 88be
000002d0: 9339 8aba 8d6e 4cbe a6d5 8d3c 0eda a3bd
000002e0: 69a0 64be 4f34 78bd bf83 8fbd 3932 84be
000002f0: 7dd4 f43c cc38 b53c c18d 52be ad60 cf3c
00000300: bfb1 023d 17cc 7abd 5c4c 243a 38fc 8dbc
00000310: 3e1b 37be be8f 99bd 3a3a 283e 0992 40bd
00000320: 8b51 063e 8e46 d8bc 6f9c 86bd 8f1d aebd
00000330: a70f 093e 6571 1cbd 7235 e53c 6b8b 0b3d
00000340: 401f 3ebe 0712 453d c5bd 50bd e1a4 733d
00000350: 547a a03c b654 403d 44a2 3abe 34b4 833d
00000360: 5859 cabd 3142 e43c b8f5 d8bd 4ff4 2cbd
00000370: c6bf e7bd 00d6 4ebd 778f f5bd 82d2 f03c
00000380: d433 88bd a8e7 9d3d 79a5 043d 0493 cd3d
00000390: ab4a 17bd dae4 8bbe 7501 72bd 7ded 143e
000003a0: 9d99 9c3d a8b1 6b3e fed2 663d 9a82 01bd
000003b0: dd44 993d 2f91 a2be 4c2f 5e3d 7dd5 82be
000003c0: a581 e63d ccab 8d3c e1e0 123d 4bf9 7d3d
000003d0: 5891 4f3d 8a4a 063d 73bd f0be 4e80 f9bc
000003e0: 1fff 08bf a07a 873d 72a9 113d d195 013e
000003f0: 0b8b b7bc 7901 d739 d7ef 66bd 11dd a3bd
-0.12661673 0.035551965 -0.15444356 -0.07013471 0.08155168 0.062100507 -0.10161054 0.042732336
-0.22103296 -0.1702614 0.03245837 -0.14464484 0.06408078 0.022060351 0.06971234 -0.20331
0.07356361 -0.17232156 0.028788669 0.070313804 0.007482083 0.028823005 -0.107276924 0.010034284
-0.017613903 0.019608306 0.057762176 0.03637313 0.03871061 0.013056347 0.047958493 0.036264755
0.03164431 -0.0056913965 0.10122017 -0.033245493 -0.27471212 0.32406944 -0.33296487 0.101764105
0.12127733 0.11699706 -0.33694258 0.26842293 -0.38383934 -0.047955673 -0.18783341 -0.0957647
-0.2305955 -0.2892982 -0.3040207 -0.19998509 -0.27550563 -0.29586586 -0.032056596 0.008658327
-0.046296272 -0.044834588 0.03755455 -0.020785037 -0.040237185 -0.027016371 -0.027870668 -0.0288676
-0.020994427 -0.10533455 -0.039849058 -0.023119245 -0.028026842 -0.003529966 -0.0075072045 -0.057373695
0.0067018885 0.0015762219 -0.023818988 -0.06945174 0.017952662 -0.30978355 0.041917462 -0.261371
-0.024094572 -0.053604383 0.061130017 -0.06585806 -0.08788898 -0.05755813 -0.03370693 0.03452117
0.07533807 0.037845876 0.04471224 -0.008274879 0.0006981387 0.09366598 0.17922945 -0.060048465
0.010774866 -0.17566484 -0.059430517 0.043724835 -0.030823695 -0.017480295 -0.21850464 -0.17476603
-0.17273162 0.07066336 0.010940171 -0.02513026 0.059004825 -0.07826572 0.06945678 -0.062663615
-0.13442472 -0.1482475 -0.067842856 -0.17201924 -0.082826115 0.06262904 0.021882132 -0.0048077297
-0.017542351 -0.046434782 -0.115672335 0.04204156 0.061701797 -0.01854881 0.13104019 -0.039369695
0.20516558 -0.09629288 0.009496349 -0.073271364 0.15938583 -0.114619754 0.29048985 -0.06726607
-0.039366134 0.009515713 -0.043893714 -0.05916378 -0.09150764 -0.013580605 0.03597268 0.13127343
0.063976295 0.065674394 -0.04666269 -0.044331487 -0.014096288 -0.047328055 -0.014487651 0.09554516
-0.057784185 -0.15316726 -0.2799789 -0.26966244 0.008502846 0.15881425 -0.021258598 0.0073029147
-0.029933011 0.007470004 -0.108594805 -0.057264794 -0.050438266 0.0030806097 -0.06721584 -0.031331092
-0.074796624 -0.007801837 -0.060679596 -0.27185684 -0.011361221 -0.2091596 -0.07138716 -0.041894533
0.03816387 -0.2579402 0.012095689 -0.26638123 -0.0010545723 -0.19964047 0.01731379 -0.08000575
-0.22326817 -0.06059676 -0.070075504 -0.25819567 0.029886479 0.02212181 -0.20561887 0.025314653
0.031907793 -0.06122979 0.0006267482 -0.017332181 -0.17881486 -0.0749812 0.16428462 -0.04701427
0.13117044 -0.02640083 -0.06572806 -0.085017316 0.13384877 -0.03819408 0.027979586 0.034068506
-0.18566608 0.048112895 -0.05096223 0.059483413 0.01958958 0.046955787 -0.18225962 0.064308554
-0.09880322 0.027863594 -0.10593742 -0.04222518 -0.11315875 -0.050497055 -0.11990254 0.029397253
-0.066505104 0.077102005 0.03238437 0.10037807 -0.036936443 -0.27323037 -0.05908342 0.1454372
0.07646487 0.23016989 0.05635356 -0.031618692 0.07483838 -0.3175139 0.054244325 -0.25553504
0.112551965 0.017293833 0.035858992 0.062005322 0.05067572 0.03278593 -0.47019538 -0.030456688
-0.53514284 0.06615186 0.035561986 0.12654807 -0.022405168 0.00041009093 -0.056381073 -0.080011494

decoder.model.0.bias f4 [64]
00000000: e1a5 093d e90c cd3b 4a08 17bd 3d0c 29bd
00000010: b16b a6bc 99fb 9e3c 4dc3 0fbd ad9c ddbc
00000020: 9930 ccbc d6c2 913c 8fb7 13bd 0591 ba3c
00000030: 5e8d 023d 589f 6fbc 25bf 14bd 7968 013d
00000040: 051c 243d 97da cb3b 651e 2dbc 67c3 01b9
00000050: eb48 053d 859b 55bc 8175 c43b aca5 ef3c
00000060: a2aa 043d 15cf 113d 10f7 61bb e44c 883b
00000070: d57b c2bb 6ffc 6a3c 3f24 403c 935a 733c
00000080: 5ab3 b33c 7b6d 123d 7270 18bd bbe6 ebbc
00000090: aca8 223d 4c5a 48ba e9af 39bc aad0 a63c
000000a0: ad0a 74bc b0b4 07bd 8f5f 84bc 6451 aebc
000000b0: eea5 28bd e5ea c53b 21ac ba3c c2db 47bc
000000c0: 4e18 60bc 6039 17bd f8f6 fe3c 43f2 8b3c
000000d0: d1b0 dfbc 0b84 033d cb52 aa3c 77f5 d83b
000000e0: 8619 fc3c bbf4 a33c a0ff 04bd d90e 073d
000000f0: f688 bbbc 394e d23c bfb9 053d fb1c 663a
0.03360546 0.0062576425 -0.03687314 -0.041271437 -0.020315023 0.01940708 -0.035098363 -0.027052248
-0.024925517 0.0177931 -0.036063727 0.022774229 0.0318731 -0.014625393 -0.036315102 0.031593774
0.040065784 0.0062211263 -0.010566329 -0.00012375192 0.032540243 -0.013037567 0.005995453 0.029253803
0.03238929 0.03559788 -0.0034479536 0.0041595567 -0.005935172 0.014342411 0.011727392 0.014853138
0.021936107 0.03574894 -0.03721661 -0.028796544 0.03971164 -0.000764285 -0.011333444 0.02036317
-0.014895123 -0.0331313 -0.016158847 -0.021279044 -0.041173868 0.0060399645 0.022787156 -0.01219839
-0.01367767 -0.03691995 0.031123623 0.017083293 -0.027305992 0.032108348 0.020791432 0.0066210586
0.03077389 0.020014158 -0.032470345 0.032973144 -0.022892457 0.025672065 0.032647844 0.0008778122

decoder.model.3.weight f4 [64, 32, 3, 3]
00000000: a29c 00be b618 843d ff03 5bbe 0d49 6dbd
00000010: 27d6 f137 39cd 60be 2220 67bd 18b6 a6bd
00000020: 8184 b43c e637 173e 8ffb 383d c428 a23d
00000030: c77f 29bb 2837 463d 1da1 1e3e a999 3a3e
00000040: 9154 4b3c 72d6 943d 4ca9 9c3c e840 99bc
00000050: 0f6e f23d 406e 5cbd c706 25bd 292e 49bc
00000060: bd95 52bc 6037 913c 7bc4 8f3c 392e 4c3c
00000070: c4a4 54bd 4e03 233d 64ce a9bc 69ff d1bd
00000080: b7f7 543d 0f62 f6bd 5246 75bd 861a 673d
00000090: d9ef d5bd 7a16 233d 234e 09bd 6314 2bbc
000000a0: f0b4 7dbd bfb4 fabc 3bf5 19be 2ac7 123d
000000b0: 11aa c4bc 83db 98bc 8fb4 d63b 0e75 933b
000000c0: b3d7 9ebd 89e4 07bd 92b8 e7bc b985 febb
000000d0: faf1 f9bc 5a04 3bbd f389 543d 81c6 92bd
000000e0: 6e93 bf3c a312 59bc a265 21bd 06b9 e23d
000000f0: 9b52 1b3c 7d83 04bd 8e95 b33d 8576 72bd
00000100: 8a10 90bd 93d4 4abd 25bf 05bb f18b 5ebc
00000110: b7a3 b9bc f37b 9dbc 22af 13bd 50eb 93bd
00000120: c7c6 87bd 5b16 213d d6f6 15be d0b6 5d3d
00000130: c2b8 c9bd f7d7 393d 02e7 f4bd 20e6 05bd
00000140: f796 1abe 89b1 313d 5d30 2ebd 434e 00bd
00000150: 337f 1cbd 4644 83bd 158a d2bc 6d88 8c3c
00000160: a8c6 62bd 9e2a 0f3e cc88 83bd 5777 3ebd
00000170: 59ce 963d 4263 cfbd 35cf b3bd 70ae 1c3e
00000180: e78b babd 1b15 b53c 8c74 7c3d f23f 9a3c
00000190: 10a5 ebbd 7c81 0ebc d83d 743d 30dc 98bd
000001a0: 8539 bb3d b296 4b3d 7736 14be a54c 3fbd
000001b0: 1e53 3039 b862 15bc 3329 11bd 95ff 86bc
000001c0: 5243 a7bd 0524 89bd c8bc 3dbd 456b 70bd
000001d0: b57f adbc 3cd7 b1bd 4459 8e3d 6c96 293d
000001e0: 9643 89bd 4617 e1bd 9efd 36bd 84cf 57bd
000001f0: 90ca 4f3d 8442 94bd a5a9 2dbc f5d1 e63d
00000200: 78c8 b23d 1a79 50bd 8cf2 963d 381f 2c3b
00000210: d24b e7bb ae89 b63d 7c85 d63a a606 8f3d
00000220: cf8f 14ba d27f 3ebc a720 a3bc 7e7d d83b
00000230: 3e2f 02bc b82e 64bd 106c 9e3c 9656 223d
00000240: e019 57bd aa27 113e a1e5 e6bd bcf7 2bbd
00000250: f9ae 743e 96aa 08be e742 02be ef23 72bd
00000260: 22ec 75be 061b babd 66e2 2bbc bbaf fbbd
00000270: 6674 10be 385b 043d f59c f1bd d765 34be
00000280: 4e61 5cbd c6c4 4dbd 22c7 4c3d ddfe babd
00000290: beeb 07be e651 a6bc 7b90 a4bd 8b40 05be
000002a0: 20fc 9ebd 9b88 08bd f987 51be 7705 acbd
000002b0: 613c 043d 9fca 86bd f2b3 823c 330f 963d
000002c0: 158d 16be 05af e3bd a62f 273d 88b6 6ebd
000002d0: 5ff6 77bc 1d65 95bc 7dd1 103b 133a eabc
000002e0: 2654 aabc e1a1 a63b bdf4 233c 8cf6 8abb
000002f0: 1431 033d a090 723d 60aa 54bd ed60 d63c
00000300: 67d1 82bd 6eb4 7abd 5501 6bbc 7bfb 9b3d
00000310: d73b c13b 8aad e53d 15d2 8d3c 7508 0abd
00000320: b186 96bd 1284 2fbc a295 acbc c4d9 c5bd
00000330: 672f e8bd 4e79 933d 9255 083e 1876 d23d
00000340: 9791 01bc 0dd0 0a3d 4313 ce3c 1e11 dbbc
00000350: b477 8c3d 1912 01bd f5f8 bdbd 8a83 8cbd
00000360: 4785 f5bb 8135 e63c f14d 883c b9f3 3e3d
00000370: 9502 e03d 97f2 293e cdf7 113d 492b ddbc
00000380: 76df 1a3d 05b4 f7bd ddda aabd ff7a f8bd
00000390: 18e6 233b e497 99bd b48d d6bd 5150 5c3c
000003a0: af35 f5bb 7e31 fa3c 293a 3c3d 3e68 c5bb
000003b0: 6e8a 1c3c a6a9 5dbd 3787 1abd 30e1 f93d
000003c0: 4534 1ebc 8f79 d4bb c7c3 393d 586d f23c
000003d0: 9a23 dfbc fc26 cc3c 827d da3a c94e 10bd
000003e0: deee 713a bff5 9bbd 6fc1 3ebc 78ec 273e
000003f0: dea5 973b b92a 11bd 0da3 edbc c180 c0bc
-0.1255975 0.06450026 -0.21388243 -0.057930995 2.8829161e-05 -0.21953286 -0.05642713 -0.081402004
0.022035839 0.14767417 0.04516178 0.07917932 -0.0025863515 0.048392445 0.15491147 0.18222679
0.012410299 0.07267465 0.019123696 -0.018707708 0.11837398 -0.05381608 -0.040289667 -0.012279072
-0.012853083 0.0177266 0.017549744 0.012462192 -0.051914945 0.039798073 -0.020728298 -0.10253794
0.05199405 -0.12030422 -0.059881516 0.05642178 -0.10446138 0.039816357 -0.033521783 -0.010441872
-0.061940134 -0.030603765 -0.15034954 0.03583447 -0.024006875 -0.018659359 0.006552286 0.004500038
-0.07755985 -0.033176932 -0.028286252 -0.007767406 -0.030510891 -0.045658447 0.05188937 -0.07166768
0.02338573 -0.013249072 -0.039403565 0.11070447 0.009480144 -0.03235196 0.0876876 -0.05919506
-0.070344046 -0.049519133 -0.002040812 -0.013583169 -0.022661073 -0.019224143 -0.03605569 -0.07222617
-0.06629711 0.03932796 -0.14644942 0.05412942 -0.09849693 0.045371976 -0.11958124 -0.032690167
-0.15096651 0.0433822 -0.04252659 -0.031324636 -0.038207244 -0.064095065 -0.025700608 0.017154897
-0.055365235 0.13981101 -0.06422576 -0.04650053 0.073635764 -0.10126354 -0.08779756 0.15300918
-0.091087155 0.02210479 0.061634585 0.01882932 -0.115060925 -0.008697864 0.05962929 -0.074638724
0.0914183 0.04970426 -0.14473902 -0.046703953 0.00016815632 -0.009117775 -0.03543968 -0.016479293
-0.08167137 -0.06696323 -0.046322614 -0.05869605 -0.02117906 -0.08683631 0.0695062 0.04140322
-0.06702344 -0.10990767 -0.044675462 -0.052688137 0.050730288 -0.07239249 -0.010599528 0.11270515
0.08729643 -0.05089674 0.07370481 0.0026263725 -0.007058599 0.08912979 0.0016366686 0.0698369
-0.0005667181 -0.011627154 -0.01991303 0.0066067567 -0.007945834 -0.055708617 0.019338638 0.039633356
-0.05251491 0.14175287 -0.11274267 -0.041984305 0.23894872 -0.13346323 -0.12720834 -0.0591163
-0.24015859 -0.090871856 -0.010490989 -0.12289377 -0.14106902 0.032313555 -0.11797515 -0.17616974
-0.053803734 -0.050236486 0.049994595 -0.091306426 -0.13273522 -0.020302724 -0.0803537 -0.13012902
-0.07762933 -0.033333402 -0.20462026 -0.0839948 0.032284144 -0.06581616 0.015954945 0.07327118
-0.14702256 -0.11117367 0.040816925 -0.058279544 -0.015134423 -0.018236691 0.002209752 -0.028592145
-0.020792078 0.0050852154 0.010007081 -0.0042408165 0.032029226 0.059219956 -0.051920295 0.026169265
-0.063875966 -0.061207227 -0.014343579 0.076163255 0.005897026 0.112147406 0.017312089 -0.03369947
-0.07349909 -0.01071264 -0.021067444 -0.09660676 -0.11337166 0.072008714 0.13313892 0.10276431
-0.0079082465 0.03388982 0.02515567 -0.02674156 0.06858769 -0.0315114 -0.092760004 -0.068610266
-0.0074926945 0.028101685 0.016638728 0.04661915 0.109379925 0.16596447 0.035636712 -0.026998179
0.037810765 -0.12094883 -0.08342526 -0.12132835 0.0025008973 -0.07499674 -0.104762465 0.013446883
-0.007483206 0.030541178 0.045953903 -0.0060243895 0.009554489 -0.054116867 -0.037726607 0.12201154
-0.009656017 -0.0064842175 0.045352723 0.029593155 -0.027238656 0.024920933 0.0016669484 -0.035231385
0.00092290144 -0.07615232 -0.011642798 0.163988 0.004627927 -0.035441134 -0.029008413 -0.023498895

decoder.model.3.bias f4 [32]
00000000: 63fa e33c 43b7 c7bc 2c33 083d f15f 8d3c
00000010: f150 73bd f9f4 5bbd fa70 f6bc 1ef3 4abd
00000020: ef06 fcbc 732b 6d3d 6101 32bd 0d8d 7bbc
00000030: a51d f83b 04ae 43bd 62a3 b13c d44c f5b9
00000040: af60 32bd ae86 b7bb d7db 253d 4d9c 58bd
00000050: 5603 2bbd be52 5d3d bb93 ecbb cc7c 373d
00000060: 811f 5f3c 7496 563c 91ed 0e3a 333e 0fbb
00000070: 5643 0b3d 0293 47bd 316b 66bd fe1f 60bd
0.027829355 -0.024379378 0.033251926 0.017257662 -0.059403364 -0.05370042 -0.030083168 -0.04954826
-0.030765025 0.057902765 -0.043458346 -0.015353453 0.0075718933 -0.047773376 0.021684352 -0.00046787283
-0.043549236 -0.005600772 0.04049286 -0.052883435 -0.04175123 0.054033987 -0.0072197593 0.04479675
0.013618351 0.013097394 0.000545227 -0.0021857142 0.033999763 -0.048724182 -0.05625457 -0.05471801
